…
 in other operations, rebuild TensorFlow with the appropriate compiler flags.\n2024-07-28 15:33:01.982418: I tensorflow/core/common_runtime/gpu/gpu_device.cc:1510] Created device /job:localhost/replica:0/task:0/device:GPU:0 with 31141 MB memory:  -&gt; device: 0, name: Tesla V100-PCIE-32GB, pci bus id: 0000:05:00.0, compute capability: 7.0\n\n\nModel: \"sequential\"\n_________________________________________________________________\nLayer (type)                 Output Shape              Param #   \n=================================================================\nmasking (Masking)            (None, 70, 16384)         0         \n_________________________________________________________________\nlstm (LSTM)                  (None, 70, 50)            3287000   \n_________________________________________________________________\nbatch_normalization (BatchNo (None, 70, 50)            200       \n_________________________________________________________________\ndropout (Dropout)            (None, 70, 50)            0         \n_________________________________________________________________\nlstm_1 (LSTM)                (None, 50)                20200     \n_________________________________________________________________\nbatch_normalization_1 (Batch (None, 50)                200       \n_________________________________________________________________\ndropout_1 (Dropout)          (None, 50)                0         \n_________________________________________________________________\ndense (Dense)                (None, 376832)            19218432  \n=================================================================\nTotal params: 22,526,032\nTrainable params: 22,525,832\nNon-trainable params: 200\n_________________________________________________________________"
    },
    {
        "objectID": "Notebooks/2.2_LSTM.html#model-training",
        "href": "Notebooks/2.2_LSTM.html#model-training",
        "title": "4\u00a0 Long Short-Term Memory (LSTM)",
…
